trtt.pt (torch, 159987 bytes, 16 tensors)

conv1.weight f4 [32, 3, 3, 3]
000000 fb fa 6b 3e f2 6c 53 3e 0d f1 ec 3d bf 41 9a 3e
       0.2304496 0.20647028 0.11569414 0.30128285
000010 72 cb fb 3e f5 6a 20 3a a5 3f c5 3e ed ff c9 3e
       0.49178654 0.00061194535 0.3852512 0.39453068
000020 57 fb 3c 3e f6 7d 4c be d0 5c c0 be db be 07 b8
       0.18455254 -0.19969925 -0.3757081 -3.2364256e-05
000030 c7 36 9e bd 9b 00 07 3d 6a 25 11 be af 20 b0 be
       -0.07725292 0.03295956 -0.14174429 -0.34399936
000040 ef 80 94 bd 14 48 20 be 75 7a 64 be 9a 46 f9 bd
       -0.07251155 -0.15652496 -0.22312339 -0.12171669
000050 02 b6 60 3e 6e 36 b8 be 8d bc 00 be 32 fc fb bc
       0.2194443 -0.35979027 -0.12571926 -0.030759905
000060 47 64 30 be ec 5b 68 be 02 61 8f be db 52 26 be
       -0.17225753 -0.22691315 -0.280037 -0.16242544
000070 09 ba ed be 0f 13 69 be a1 b0 d5 3e a0 5b f8 3d
       -0.46430996 -0.22761177 0.4173632 0.12126851
000080 f8 8b 8e 3d 62 d0 ae 3e cd a2 b4 3e 75 33 a5 3e
       0.06960291 0.34143358 0.35280457 0.3226582
000090 69 a1 38 be 11 d9 e6 be bd b2 01 bf 25 cc 25 3e
       -0.18030323 -0.45087484 -0.5066336 0.16191156
0000a0 59 4c 07 be 70 be 68 be 6b 58 2c 3e f4 d6 d8 bd
       -0.13212718 -0.22728896 0.16830604 -0.10587874
0000b0 b6 d2 4f be 9c cc a7 3e f1 dc 8e 3e 81 3e a3 3e
       -0.20295224 0.32773292 0.2790294 0.31883624
0000c0 88 32 85 3d 40 ef 72 3e 5e 4b 16 3e 50 90 55 be
       0.06503779 0.23724079 0.14677188 -0.20855832
0000d0 ae b5 2a be a3 66 b0 bd 08 17 94 be aa 4a 9f 3e
       -0.16670868 -0.086133264 -0.2892382 0.31111652
0000e0 17 9a 01 bf c8 27 b4 3e 01 8a 3b be 3b 18 5a be
       -0.5062575 0.351866 -0.18314363 -0.21298306
0000f0 45 dc f6 bd 90 35 9b be 35 67 b0 3e 78 c2 3f 3e
       -0.12053732 -0.30314302 0.3445374 0.18726528
000100 95 54 05 3f 74 84 91 be 1f ca 93 3e 4f 71 19 3d
       0.52082187 -0.28421366 0.28865144 0.037461575
000110 aa b6 b6 bb 74 d9 65 3e 90 b0 c6 bd fd 4f 13 3e
       -0.0055759745 0.22446233 -0.097016454 0.14385982
000120 6c a4 30 3e 7a 0a b4 3e d3 3d 00 bf 73 99 9e 3d
       0.17250222 0.35164243 -0.50094336 0.07744112
000130 6b 31 7b be 04 19 04 3d ef 9a 9a bd 98 0c 9e be
       -0.2453057 0.03225042 -0.075490825 -0.30868983
000140 c9 24 25 3e de 55 8e 3e 62 3a 87 3c 7f 2b eb 3d
       0.16127314 0.27799886 0.016507331 0.114829056
000150 1a 85 81 3e d5 51 fb be 88 17 2f be 58 c6 c5 3d
       0.2529686 -0.4908587 -0.1709882 0.09656972
000160 2a 68 c0 bd e2 fc ce 3e 9c b9 e0 3e aa 63 bf 3c
       -0.09394868 0.4042731 0.4389161 0.023362953
000170 2f 27 92 3e b3 a7 39 bd 2a ee 2a bf c2 5a 07 be
       0.2854552 -0.045325946 -0.6676966 -0.13218215
000180 6e 7f bd be a2 3c 84 be 93 6d c0 3e 34 5a c3 3e
       -0.37011284 -0.2582751 0.37583598 0.38154757
000190 ea c6 96 3d b3 fb c5 3d 5e cc 0a bd a5 5e 03 bf
       0.073621586 0.096671484 -0.033886306 -0.5131629
0001a0 80 16 76 bd 27 9c bd be 67 84 dd bd db 95 e1 3e
       -0.06008005 -0.37033197 -0.10816269 0.44059643
0001b0 ff a3 68 3e c4 ec 50 3b 28 f2 b0 be 5a 97 8e be
       0.2271881 0.0031879405 -0.3455975 -0.27849847
0001c0 98 5b 3f be b8 8e 1a 3e 5e c1 00 bf 79 1b 38 3e
       -0.18687284 0.15093505 -0.50295055 0.1797923
0001d0 54 e2 9f 3e 80 8b 80 3e 59 a9 29 be 0c 29 3a be
       0.31227362 0.2510643 -0.16568507 -0.1817972
0001e0 ff 68 09 be 20 a3 ef bd c0 ce 91 3e 3e cf a6 be
       -0.13418959 -0.117010355 0.2847805 -0.32579988
0001f0 27 3b b2 3e fb 6b 1c 3d 60 01 ad 3e 06 10 92 be
       0.34810755 0.038188916 0.33790112 -0.2852785
000200 6c 00 13 be 72 57 47 3e 23 68 08 3d 7d 4e c4 bd
       -0.1435563 0.19466951 0.033302438 -0.09585283
000210 5a 4e 8c be 6b 00 93 3e 61 35 4f be 32 d9 dc 3d
       -0.27403527 0.28711256 -0.20235206 0.10783614
000220 72 c3 29 3f 49 42 84 3e db 31 67 3e ed 1e f1 3d
       0.6631385 0.25831822 0.22577612 0.11773477
000230 52 e4 38 3e 94 e3 b6 be 2b e4 f8 be d6 71 dd be
       0.18055847 -0.35720503 -0.48611578 -0.43250912
000240 9a e3 2c bd 5b 38 ca 3e f2 be 11 3e 4a 25 4a bd
       -0.042209245 0.3949612 0.14232996 -0.049351968
000250 27 75 69 3e 67 8b 3c bd 86 9c f0 bd a1 3c be be
       0.22798596 -0.046031382 -0.117486045 -0.3715563
000260 2e 73 de be 3c 71 65 3e 6c 30 59 3e c3 b8 61 3e
       -0.4344725 0.22406477 0.21209878 0.22043137
000270 aa 1b 98 bd 20 80 25 3e 9a 78 40 3e d2 e0 84 be
       -0.074271515 0.16162157 0.18796006 -0.25952774
000280 9c 43 d5 be 8d b5 c6 be 1c 31 75 bd 6b 31 de 3c
       -0.41653144 -0.38810387 -0.059861287 0.027123174
000290 9d 5b 3d bd 17 17 cb bc 0e a8 8e 3d b0 59 80 3e
       -0.046229947 -0.024791284 0.06965648 0.25068426
0002a0 7a 81 9e bd 99 2a 73 3e a0 8b 0f 3e b0 17 4b be
       -0.077395394 0.23746718 0.14018106 -0.19833255
0002b0 7d 73 97 bd 62 5c 66 3e 11 a5 a4 bd b8 f0 90 be
       -0.073950745 0.22496179 -0.080392964 -0.28308654
0002c0 3a e4 50 be 06 a2 82 3c de c0 5d 3c 26 67 25 be
       -0.20399562 0.0159464 0.013534753 -0.1615263
0002d0 08 a4 24 be 72 bb c9 bc 88 9c e2 bd 54 7d 80 3e
       -0.16078198 -0.024625514 -0.11065012 0.25095618
0002e0 46 38 d7 be 5f 80 9a be e9 1b a3 3e 7c e3 eb bd
       -0.4203512 -0.30176064 0.3185723 -0.115179986
0002f0 2a 5b d0 be ee 88 fc be 84 a2 01 bd 10 a7 85 3e
       -0.40694553 -0.4932322 -0.031649128 0.2610402
000300 0a b8 c2 3d e8 83 15 be 50 b6 ef 3d d3 7b d4 3e
       0.09507759 -0.146011 0.11704695 0.4150072
000310 62 e9 b5 3e 1e ba 96 bd 0b a0 9b be b0 1f 8e 3e
       0.3552962 -0.07359718 -0.3039554 0.2775855
000320 0e 85 9f 3e 48 72 63 3e b3 01 f9 3c 76 38 e3 bd
       0.311562 0.22211564 0.030396318 -0.110947534
000330 23 12 40 3e 22 38 63 3e 8d 12 8b be 29 52 a0 be
       0.18756919 0.22189382 -0.2716259 -0.31312683
000340 2e 4e 3a 3d a1 0d bf 3e 88 13 22 3e 50 b7 07 be
       0.045484714 0.37315086 0.15827763 -0.13253522
000350 50 2a 73 3d e3 7a d2 bd 1b 15 4c be 18 d2 d5 be
       0.059366524 -0.10277345 -0.19929926 -0.4176185
000360 c9 66 ae bc 91 6b af 3e 56 d7 08 3f d7 7e 83 be
       -0.021289246 0.34261754 0.53453577 -0.2568271
000370 ae 01 e1 bd a3 98 11 3f fb 01 8a be f3 5e e5 be
       -0.109866485 0.5687353 -0.26954636 -0.44799003
000380 1d 57 20 3e 70 4a 92 bd 2a 57 c0 3d 53 fc a9 3e
       0.15658231 -0.07143104 0.09391625 0.3320032
000390 2d 00 92 be d0 dd 3f be dd 51 b8 3e a9 2e f6 bd
       -0.2851576 -0.18736959 0.35999957 -0.120206185
0003a0 12 36 be be bd ff 0b be a3 eb e7 3d 33 52 a1 3e
       -0.37150627 -0.13671775 0.11324241 0.31508026
0003b0 2a 86 ac 3e 10 52 60 be 44 1d 41 be 91 7a 1f 3e
       0.3369611 -0.21906304 -0.1885882 0.15574099
0003c0 9e c5 e2 3a 50 76 94 be 43 06 95 3d 0b 05 98 be
       0.0017301326 -0.28996515 0.07276585 -0.29691347
0003d0 5a 77 47 3e f5 2c 71 be 72 89 61 be 24 72 a5 3b
       0.19479123 -0.23552306 -0.22025087 0.005049007
0003e0 8b 9c 19 3e 95 1d 92 be ee 05 9b bd 83 0b 04 3e
       0.15001123 -0.28538194 -0.075694904 0.12895016
0003f0 3a 09 e1 3a 12 0b 85 3e 90 bf df 3d f6 7f f1 be
       0.0017168887 0.25985008 0.109252095 -0.4716794

conv1.bias f4 [32]
000000 7d 97 30 3e 8e b3 0a 3d f1 3d c1 bd a8 65 02 3d
       0.17245288 0.033862643 -0.094356425 0.03183523
000010 0c c8 3f bd 02 b5 fa 3d 63 11 6a 3b 3f 9c fc bd
       -0.04682164 0.12241556 0.003571593 -0.12334489
000020 06 d6 2a 3e 0e 26 44 be 32 42 0e bd 1e 42 f4 3d
       0.16683206 -0.19155142 -0.034731098 0.11926673
000030 e0 a5 b8 bd 25 61 e1 3d 7f 6e 61 bc 9a 7a f5 3d
       -0.09016013 0.11004857 -0.0137592545 0.11986275
000040 bd c8 b8 3c f1 3d 40 3e ca 43 37 be 39 02 15 be
       0.022556657 0.18773629 -0.17896953 -0.14551629
000050 da 9f f7 bd a9 2f 30 bc 34 e5 cf bc b3 a3 20 3e
       -0.12091036 -0.010753551 -0.025377847 0.15687446
000060 d7 4d 3f be df 28 3f 3e 41 4e 3f 3e 81 35 82 3d
       -0.18682037 0.18667935 0.18682195 0.06357861
000070 df ca ee 3d 6a 3e 3e bc 0f 76 ba bd 2c 5f 37 bd
       0.11659788 -0.01161156 -0.09104549 -0.044768497

conv1_batchnorm.weight f4 [32]
000000 7c 80 a0 3f be cf 8c 3f 65 80 9d 3f 2a 10 83 3f
       1.253921 1.1000898 1.2304808 1.0239308
000010 cf 5f 24 3f ad f7 ac 3f ff e6 53 3f 54 c5 3f 3f
       0.6420869 1.3513085 0.8277435 0.74910474
000020 3a 11 96 3f ce 7f 97 3f 0b 45 25 3f 26 40 4b 3f
       1.1724007 1.1835878 0.64558476 0.7939476
000030 8b dc 61 3f d8 da 8b 3f e7 da 8d 3f ce f1 77 3f
       0.88227147 1.0926161 1.1082429 0.9685334
000040 79 0c 8b 3f 40 bf ac 3f e0 56 24 3f 37 a8 44 3f
       1.0863181 1.3495865 0.6419506 0.76819175
000050 f5 14 ad 3f 5b dc a6 3f 57 57 97 3f 1e 7c 6f 3f
       1.352202 1.3035997 1.1823529 0.9354876
000060 ac 4d a5 3f 86 c2 b1 3f ce 8f 99 3f bf 5a 98 3f
       1.2914329 1.3887489 1.1997011 1.1902694
000070 4e 20 32 3f 1f 0c 81 3f 7d da 57 3f c0 03 87 3f
       0.69580543 1.0081824 0.8431776 1.054802

conv1_batchnorm.bias f4 [32]
000000 6c c6 f5 3d c2 e5 88 be 2e df fd 3d 89 4e 9e be
       0.120007366 -0.2673779 0.12396084 -0.30919293
000010 eb 75 39 bf 5e 7e 33 bf 46 c4 e6 be 18 3b 56 bd
       -0.72445554 -0.70114696 -0.4507162 -0.05230245
000020 07 6f 07 bf 9c a6 44 bf 59 46 01 bf 28 d3 07 3e
       -0.5290379 -0.76816726 -0.50497967 0.13264143
000030 7b 86 06 bf 3b 51 2c be 69 17 1e bf 0f 2b 5d be
       -0.5254895 -0.16827862 -0.6175447 -0.21598457
000040 58 7b d3 bd da bf b3 be f0 e8 91 bd 11 ab 6f 3d
       -0.1032626 -0.3510731 -0.071245074 0.05851275
000050 3a d2 d3 bd 90 9d d2 be 1e d7 c0 be c2 78 e6 be
       -0.10342832 -0.41135836 -0.3766412 -0.45014006
000060 84 ee ca be 40 ba 6f be 7f 1d 72 be 6b 92 0d bf
       -0.39635098 -0.23410892 -0.23644064 -0.5530154
000070 c2 33 9e be 55 ec ad 3d c7 3a c8 be c9 cd fc 3d
       -0.30898863 0.084923424 -0.39107344 0.12343938

conv1_batchnorm.running_mean f4 [32]
000000 30 e1 91 3d 70 5d e6 3d d2 bb 5f bd f7 3f 68 bb
       0.07123029 0.112482905 -0.05462248 -0.0035438517
000010 62 19 a9 be 3b b3 ac 3d cc e4 03 bf 1d 9c 12 3e
       -0.33027178 0.08432623 -0.5152099 0.14317365
000020 4f 9c a2 3e 5c 3b 9f be 91 05 59 be 51 0c 57 3f
       0.3175988 -0.31099975 -0.2119353 0.8400317
000030 e5 36 17 3e 8d 54 6f 3d 3e a5 1f be 91 39 78 bd
       0.14767034 0.058430243 -0.15590379 -0.060601775
000040 ae 62 c8 3c 6b d7 09 3e 20 38 9b bf 0f 70 32 3e
       0.024461117 0.13461082 -1.2126503 0.1742556
000050 69 bd 26 bd eb de 6b be 48 93 07 3d e8 6a 83 3e
       -0.04070798 -0.23034255 0.033099443 0.256675
000060 fa 3f 61 be a3 06 ae bc d4 34 02 be 2c 8f 95 3d
       -0.21997061 -0.021243399 -0.12715465 0.073026985
000070 c6 ac 70 3e c7 84 1a 3e f8 5a 4f 3f 2c d2 16 3e
       0.23503408 0.15089713 0.8099818 0.14728612

conv1_batchnorm.running_var f4 [32]
000000 31 06 b9 3d 59 ed 6c 3d 73 1c 17 3d e7 0d c3 3d
       0.09034384 0.05784354 0.036892366 0.09524136
000010 99 8e 10 3d 1c ad 90 3e 49 97 c2 3d 3e 8e 1b 3d
       0.03529224 0.28257072 0.095015116 0.03797745
000020 c9 65 65 3e c6 08 24 3e fa 5b 2d 3d 00 df 21 3e
       0.22402109 0.16018972 0.042324044 0.15807724
000030 75 c4 8d 3d 9a 96 f8 3d 64 a0 65 3e f3 2f ca 3c
       0.06922237 0.121381 0.22424465 0.024681067
000040 90 60 0c 3d a4 ae 12 3e 44 03 7f 3e 49 80 48 3d
       0.034271777 0.14324433 0.2490359 0.048950467
000050 6f 78 03 3e be d5 52 3e a1 2d a8 3d e0 a2 cf 3d
       0.1283891 0.20589349 0.08211828 0.10138488
000060 62 31 b1 3d 48 60 d1 3d da 2a 63 3d e7 c8 40 3e
       0.08651997 0.10223442 0.05546079 0.18826638
000070 95 5e c4 3c 2e d9 40 3d e4 2b 3d 3e 26 dc 60 3d
       0.023970881 0.04708212 0.18473774 0.05489745

conv2.weight f4 [16, 32, 3, 3]
000000 b7 77 ad bd d3 0d ae bc e3 86 f6 3a bf 56 18 3e
       -0.084700994 -0.021246826 0.001880851 0.14876841
000010 f4 1e 41 3e 05 f8 75 bc 8d 08 51 3e c2 31 69 3b
       0.18859464 -0.015012746 0.20413418 0.0035582636
000020 41 8c 9b bc 0d 2b a1 3d 97 05 89 bc fa 28 05 3e
       -0.018987777 0.078695394 -0.016726298 0.13003913
000030 00 98 7e 3d 94 39 0a be 41 dc 4e 3c df 5b f0 bd
       0.062156677 -0.13498527 0.012625755 -0.11736273
000040 ac e2 96 be 9e 06 4e 3c 66 eb d5 3c 41 dd c6 3c
       -0.29469812 0.01257482 0.026113223 0.024275424
000050 42 00 b8 3b 73 be 21 3c 42 eb 0c bd 41 08 16 3e
       0.005615265 0.009872067 -0.034404047 0.14651586
000060 da 83 15 be 18 e2 ef bd e8 a5 92 bb b1 8b c8 3d
       -0.14601079 -0.11713046 -0.004475344 0.09792269
000070 02 23 0d 3e de c9 11 be f9 d6 c5 3b aa 14 c2 39
       0.13782886 -0.14237162 0.0060375896 0.0003701796
000080 11 82 4e be 52 c1 c9 3c b8 c1 af bd 40 82 08 be
       -0.20166804 0.024628315 -0.08581871 -0.13330936
000090 2a a6 16 3e e4 8c f6 3c ea 19 ff 3c bf f4 54 3d
       0.14711824 0.030096479 0.031140286 0.05199122
0000a0 2d 91 74 3c 86 c1 40 be 66 80 f0 bd 5a 03 6e be
       0.014927191 -0.18823823 -0.1174324 -0.23243466
0000b0 db 4a 70 be 40 6f 24 bd 18 28 0f 3d 2f 36 b3 3d
       -0.23466055 -0.04014516 0.034950346 0.08750569
0000c0 90 54 0c be 38 04 37 bd 0b 77 b6 ba e0 7a d4 3b
       -0.13704133 -0.044681758 -0.0013920976 0.0064843744
0000d0 c5 7c 47 3d 08 1f 31 3d f8 07 0b 3c 67 f8 58 3d
       0.048702974 0.043242484 0.008485787 0.05297127
0000e0 c3 15 78 3e 79 90 2a 3d f2 a3 47 be 1e 5c 90 bc
       0.24227051 0.041641686 -0.19496134 -0.01762205
0000f0 49 48 86 bd c4 8f 43 be 12 e2 2a 3d 0a 45 02 be
       -0.06556756 -0.19097811 0.041719504 -0.12721649
000100 89 5c 09 3e 0c 98 d6 bc 7b 47 77 bd ba 7c fd 3b
       0.13414206 -0.026195548 -0.060370903 0.007735816
000110 54 74 40 be a3 26 5b 3c 15 79 2e bd f8 f8 67 be
       -0.18794376 0.013375911 -0.04259594 -0.22653568
000120 85 e1 04 be e0 3b 23 3e ee d2 75 3d 2b 92 d6 bc
       -0.12976654 0.15940809 0.06001561 -0.026192745
000130 39 58 0d 3d 96 a2 25 3e 96 90 e3 bd a0 3b 96 bc
       0.034507964 0.16175303 -0.11111562 -0.018338978
000140 f2 dd ce 3d d0 9f 0c 3d a9 6f 25 bd f3 18 7c 3c
       0.101009265 0.034332097 -0.04038969 0.015386808
000150 83 80 80 3d 2a e6 b1 3d 80 81 83 3d ff 2d 56 3c
       0.06274512 0.086864784 0.064211845 0.01307249
000160 50 aa bf 3d 3f 2a 80 bd 13 a2 6f 3e 53 98 ed 39
       0.093586564 -0.06258058 0.2340167 0.00045317653
000170 b6 f2 49 bd 0b 9d 5a 3e ce 6b 8b bd 28 df 24 be
       -0.049303733 0.2134897 -0.068076715 -0.16100752
000180 42 87 3b 3e 87 78 1e bd 2f 9b 30 bd 28 c3 d1 bd
       0.18313316 -0.038689163 -0.043116745 -0.10242301
000190 94 44 dd bd 25 ce e5 3d f8 3e 76 bd f5 2e 54 3a
       -0.10804096 0.112209596 -0.060118645 0.00080941553
0001a0 82 96 0d 3e d2 7d e8 3d bc 18 d2 bc c2 1f 25 3e
       0.13826945 0.11352123 -0.02564656 0.16125396
0001b0 2b be a4 bd 55 e0 bb bb 1f a3 0f 3d 69 b8 8a bc
       -0.08044084 -0.0057335296 0.035067674 -0.016933637
0001c0 bf c4 9e 3d bc 8d 47 be 31 f9 7e bc a4 1b 01 be
       0.0775237 -0.19487661 -0.015562342 -0.126082
0001d0 df cf 84 bd ab 65 c6 3d 94 fa 3a 3d 40 55 12 be
       -0.06484961 0.096873604 0.045649126 -0.14290333
0001e0 8c 7e 89 3d b7 74 71 be 6d 59 48 be 76 6b ba bd
       0.0671359 -0.2357968 -0.19565363 -0.09102528
0001f0 f6 44 b3 bb 20 55 00 bd e8 f9 a9 3c 9f b0 65 3d
       -0.0054708673 -0.03133118 0.020749047 0.056076642
000200 34 84 3e 3e 1c db 1d 3e 53 36 10 bb 15 e0 46 3e
       0.18605119 0.15415615 -0.0022005036 0.19421418
000210 af c9 53 3d 51 8b 71 bc 9c b4 28 3e 8e 2a d5 3d
       0.051706012 -0.014742688 0.16475147 0.10408507
000220 12 28 d4 bc 9c ba b6 bd 97 1d 2c bd 3a e4 61 bd
       -0.025898013 -0.08922312 -0.042020407 -0.055149294
000230 6d 4c ba bd d0 c6 03 bd cc 53 38 be fd 47 d7 be
       -0.09096608 -0.032172024 -0.18000716 -0.4204711
000240 b8 16 cd 3d b9 7b b1 bc e4 e8 4c 3c a8 d3 a9 3d
       0.10014099 -0.02166544 0.012506697 0.08292323
000250 84 3c 7b bc 34 0c 6e bd 54 fd 08 bc df 4e ed bd
       -0.015334252 -0.058117107 -0.008361179 -0.11587309
000260 ab 63 1f bc 33 e1 11 3e 55 e1 29 bd 06 47 b5 3d
       -0.009728353 0.14246063 -0.04147466 0.08851437
000270 77 88 e7 3c e3 f5 20 be 69 7d 43 be 5a f2 d2 bd
       0.028263314 -0.15718798 -0.19090809 -0.10300131
000280 2d ad 05 be 3f 9d 81 3d d9 31 0a 3e 80 65 ff 3d
       -0.13054343 0.063288204 0.13495578 0.124705315
000290 5e e0 56 3d d3 a0 08 3e 0a 22 10 3e f5 ee 84 3d
       0.052460067 0.133426 0.14075485 0.0649089
0002a0 69 43 76 bd b0 70 fa bd 5d 3b e3 bd f7 54 0b 3e
       -0.06012288 -0.12228525 -0.11095307 0.1360663
0002b0 61 c9 6a be 0a e5 28 bd 15 3d 88 bd 43 fa 40 be
       -0.22928382 -0.041234054 -0.066522755 -0.18845467
0002c0 6d fd 08 be 5f 3a 47 3e c4 c9 55 3e ff 22 df 3d
       -0.13377924 0.1945586 0.20877749 0.10895347
0002d0 70 d0 8a 3c ec 83 f2 bd 46 d6 01 bd 6a eb 0b 3e
       0.016945094 -0.11841568 -0.031698488 0.13664022
0002e0 d2 24 47 bd 0e 53 11 be f9 43 68 bd 47 ee 12 be
       -0.0486191 -0.14191839 -0.05670545 -0.14348708
0002f0 59 2f f0 bd d0 19 b8 bd a7 0c a8 bd b4 7a 09 be
       -0.11727781 -0.08989298 -0.08205538 -0.13425714
000300 5f 13 87 bd 26 f3 c7 bd 8c 01 d6 bd 83 b2 c0 3d
       -0.065954916 -0.09763174 -0.10449514 0.094090484
000310 f3 26 ff bd c9 de 5b bc 0a 97 b8 bd b4 c6 ec 3d
       -0.12458601 -0.013419815 -0.090131834 0.11561337
000320 1a a4 ea 3d 9f d7 ef bd e6 9a a6 3d e2 22 bb 3b
       0.11457081 -0.11711048 0.08135013 0.0057109455
000330 7d 6b 33 be b7 14 49 be 1f e0 b6 3d a1 d5 6c 3d
       -0.17521472 -0.19636808 0.089294665 0.05782092
000340 f6 46 77 3d 6a db 41 be d7 1e 86 3c 44 cf c3 bc
       0.060370408 -0.18931356 0.016372127 -0.023902543
000350 85 4b 80 be 23 a7 e3 3d dd ce d4 bc b1 6d 04 be
       -0.25057617 0.11115863 -0.025977546 -0.12932469
000360 9d 4b f7 bd 17 98 1f 3d 95 43 84 3d d2 69 a7 bd
       -0.12074969 0.038963404 0.06458203 -0.081744805
000370 7c c6 06 be 55 1d 1e 3e d7 20 f2 bd 69 30 e5 bd
       -0.13161653 0.15440877 -0.1182267 -0.11190874
000380 8d e8 f7 3d e0 05 0a be 16 88 1b be 4b 4e 73 be
       0.121049024 -0.13478804 -0.15188631 -0.23760335
000390 e1 a9 84 3d 6a 29 13 be a7 60 d1 bd d2 40 9a bc
       0.06477714 -0.14371267 -0.10223513 -0.018829737
0003a0 73 82 18 be ba cc a8 bd 7e 54 3d 3e 3c 80 74 bd
       -0.14893512 -0.082421735 0.18489262 -0.059692606
0003b0 59 c6 07 3e 07 50 e0 3d 00 ca a8 bd 5c 48 41 be
       0.13259257 0.10952764 -0.082416534 -0.18875259
0003c0 7b 2e 18 3e 6b d1 1a be 65 a4 50 bd d8 8a c4 3c
       0.14861481 -0.15118949 -0.05093803 0.023991987
0003d0 d9 b1 9d bc 46 ee d5 bd 63 43 88 bc 3c 33 06 be
       -0.019249843 -0.10445838 -0.016633695 -0.13105482
0003e0 fc 42 11 3d 8e 28 9c bc 71 f5 8b be ea f7 c2 3d
       0.035464272 -0.019062307 -0.27335694 0.09519942
0003f0 7e 1d 43 be 09 a2 3b 3d cc d4 90 3d 80 55 11 be
       -0.19054219 0.045808826 0.07071838 -0.14192772

conv2.bias f4 [16]
000000 26 6f 46 bd 5b cc 55 bd 89 4a 83 38 58 ac 28 bd
       -0.048445843 -0.05219684 6.26045e-05 -0.041179985
000010 2c d4 95 bc 98 f4 cf 3a fc 55 1c 3d 78 cd 6e 3d
       -0.018289648 0.0015865741 0.03816794 0.05830142
000020 4c b7 97 3c 0e 3f 48 bd 96 e8 1c 3d aa a2 05 3d
       0.01852002 -0.04888826 0.03830775 0.03262583
000030 df ba d6 3b 42 54 81 bc 7d 72 17 bd 4f 69 16 3d
       0.0065530385 -0.015787248 -0.03697442 0.036721524

conv2_batchnorm.weight f4 [16]
000000 fa 13 db 3f f3 b6 a7 3f 37 2f bf 3f 15 cd c9 3f
       1.7115471 1.3102707 1.4936284 1.5765711
000010 ac 1d e2 3f 9e ce d1 3f c1 95 c5 3f 79 9d b1 3f
       1.7665305 1.639118 1.5436326 1.3876182
000020 ea 69 b9 3f 01 13 d2 3f 0f ce c1 3f e5 13 cd 3f
       1.4485447 1.641205 1.5141009 1.6021696
000030 06 4e e4 3f 13 8b ce 3f 9c 0a c2 3f e3 3a ff 3f
       1.7836311 1.6136192 1.5159488 1.9939846

conv2_batchnorm.bias f4 [16]
000000 37 b1 43 bf 7b 5e 9b bf 73 9e 1c bf 8e 6c 23 bf
       -0.76442283 -1.2138208 -0.61179274 -0.63837516
000010 03 96 0f bf 8e 06 28 bf c6 34 38 bf f5 03 01 bf
       -0.56088275 -0.65635 -0.71955526 -0.5039666
000020 74 fe 48 bf b7 e0 f3 be 5c 84 36 bf fd ec f7 be
       -0.78513265 -0.4763238 -0.71295714 -0.48422995
000030 89 4a 39 bf 3a e6 49 bf e3 cc ec be ad 1e 28 be
       -0.72379357 -0.7886692 -0.46250066 -0.16417952

conv2_batchnorm.running_mean f4 [16]
000000 a6 24 52 bf 09 e7 ca bd 52 90 91 bd cc e3 11 3f
       -0.8208717 -0.09907348 -0.07107605 0.56988215
000010 b9 02 65 3f 52 b5 14 bf 12 c2 48 bf 4b 2c 00 3d
       0.8945728 -0.5808917 -0.7842113 0.03129224
000020 b0 39 1f be da 71 bc 3e 11 01 99 3d fb 23 84 3e
       -0.1554935 0.36805612 0.074709065 0.258087
000030 08 4a b8 3e b3 c1 86 bf 56 ab 1b bb dd b9 06 bf
       0.3599398 -1.0527862 -0.0023753247 -0.52627355

conv2_batchnorm.running_var f4 [16]
000000 34 8d 03 40 2c a4 43 3f 43 9a 64 3f 3c bf 14 3f
       2.0554934 0.7642238 0.89297885 0.581043
000010 c3 47 76 3f 79 6f 85 3f a3 6b a3 3f 2a 42 3e 3f
       0.9620325 1.0424644 1.2767223 0.7431971
000020 7f be 32 3f 4c 99 51 3f ae 73 82 3f 68 8b 1f 3f
       0.69821924 0.8187454 1.0191553 0.6232209
000030 e8 1f 6d 3f c3 fe b5 3f ac 88 16 3f 8f 29 9c 3f
       0.9262681 1.4218372 0.58802295 1.2200183

fc1.weight f4 [32, 1024]
000000 ff 15 0a 3e 16 2c 92 bc 5f 5b b6 bd 91 87 87 bd
       0.13484953 -0.017843287 -0.089041464 -0.06617654
000010 1d 9b c1 bb 69 9a 13 3b da 7c f6 bc fd a6 cd bb
       -0.0059083835 0.0022522456 -0.03008883 -0.00627601
000020 5a 78 02 bc 8c f0 43 3d cb 61 f0 3d b4 0d 57 3d
       -0.007963264 0.047836825 0.117374025 0.052503303
000030 8a 40 c2 3d 1d 72 20 3e 85 6f b0 bd ef d8 63 3d
       0.09484966 0.15668531 -0.08615021 0.055626806
000040 f2 be c8 3d eb 6a dc 3d e4 5f 21 3d 9e 86 b7 3d
       0.09802045 0.107625805 0.03939809 0.08961223
000050 44 6a 92 bd 05 1f ac 3d 94 25 03 3e fb 89 75 bd
       -0.07149175 0.08404354 0.12807304 -0.05994604
000060 50 d3 b9 3c 37 5b c5 3d a9 fd a2 3b 5a f9 08 3e
       0.02268377 0.096365385 0.0049740863 0.1337637
000070 46 25 94 3d be 85 70 3d b0 84 c4 3d f5 27 2e bd
       0.07233672 0.058721296 0.09595621 -0.042518575
000080 a9 7d d7 bb 50 e1 ec 3c 07 50 3a 3e 1d 14 66 3e
       -0.006576259 0.028916031 0.1819459 0.2246861
000090 ac 4d 6f 3d 8a b1 44 3c 41 b1 9d 3d 08 75 f9 bd
       0.058423683 0.012005219 0.07699824 -0.12180525
0000a0 fe 25 6e 3b 70 8e 70 3d 44 aa 0d 3e ee a0 9d 3d
       0.0036338563 0.05872959 0.13834482 0.076967105
0000b0 6f 4a 1a 3c 38 16 5a 3d e0 b3 d3 3d 1f d4 d9 3c
       0.00941716 0.053243846 0.10337043 0.026590405
0000c0 54 09 d9 3c 3c 66 8e 3d 34 eb ba 3c a4 db 1d 3d
       0.026493706 0.069530934 0.022817232 0.038539544
0000d0 c2 42 d9 bc 44 19 2d 3e 71 93 92 3d 17 3e b7 ba
       -0.02652109 0.1690417 0.071570285 -0.0013980296
0000e0 09 2d c5 bd ff dd 43 bd 21 f0 e7 3b 4e 1f 90 bd
       -0.096277304 -0.047819134 0.007078186 -0.07037221
0000f0 7e c7 e3 bd 33 af b2 bc 7a 7c fc bc a7 83 9d 39
       -0.111220345 -0.021812057 -0.030821074 0.00030043462
000100 32 27 1b be 95 4f 5e bb a4 aa 47 bd 60 1b 04 3d
       -0.1515167 -0.0033921946 -0.04874672 0.03225267
000110 45 6f c7 3d 02 c5 00 3d 1b 63 38 3d cd 06 4b 3d
       0.0973802 0.03143788 0.04501639 0.049567033
000120 b5 14 ab bd 66 28 0d be cd 96 f9 bd d6 8d 21 3e
       -0.08353559 -0.13784942 -0.12186966 0.15776762
000130 73 c9 1f 3e 2f b2 89 bc 1b af 91 3d dd a5 f4 3c
       0.1560419 -0.016808597 0.07113477 0.029864246
000140 22 8f 4f 3d dc 7b 99 be 24 7c 00 be 6e 26 a9 3d
       0.05067361 -0.2997731 -0.12547356 0.08259283
000150 4b 02 cd 3d 8b fa 82 3d b5 79 18 3e 06 cd 19 3e
       0.10010203 0.063954435 0.14890178 0.15019616
000160 5e d1 57 3b fd aa 53 bb 8d 13 2b 3c 35 a7 03 3e
       0.003293119 -0.0032297962 0.010441673 0.12856753
000170 9b f9 ce 3d 47 0f ca 3d 9f 34 8a 3c 0d ba e1 3d
       0.10106202 0.09866195 0.016870795 0.110218145
000180 84 96 be 3c 9a 42 91 bd 7c 17 17 3e b6 78 c1 3d
       0.02326513 -0.07092781 0.14755052 0.09446852
000190 4f 9b 39 3e 2d 02 cb 3d 03 77 a5 3d 88 05 ce bb
       0.18125652 0.09912524 0.0807934 -0.0062872805
0001a0 f2 8c 45 3c 35 46 d6 bd 15 79 2d bd 70 a4 51 3e
       0.01205753 -0.1046261 -0.0423518 0.20472884
0001b0 0c 64 26 bd d8 26 64 3d a9 54 c5 3d 37 dd 97 3d
       -0.040622756 0.055701107 0.09635288 0.0741524
0001c0 00 95 18 3c c6 a0 80 bd 00 fb 8e bc dc ed 7f bc
       0.009312868 -0.06280665 -0.01745367 -0.015620675
0001d0 33 87 68 3d 0f 96 f2 bd 6b e6 46 3d c4 b0 fb 3a
       0.05676956 -0.11845028 0.048559587 0.001920246
0001e0 0f 17 11 bd 29 98 3e 3c d1 5a df bd 72 76 2d 3d
       -0.03542238 0.0116329575 -0.10905994 0.042349286
0001f0 1f 39 65 bc 29 6e d9 3d de 7c 93 bd 32 88 9b bd
       -0.0139906695 0.106167145 -0.07201551 -0.075943366
000200 45 9d 07 be 36 85 3c bd 8f 52 74 3d b1 44 80 3c
       -0.13243587 -0.046025477 0.059649047 0.015657755
000210 47 86 d3 bd c3 d7 dd bb 01 8b 01 be 34 2e 8e bd
       -0.10328346 -0.0067701056 -0.12650682 -0.06942406
000220 39 bc b5 bd a8 c5 cf 3d c3 fc 21 3d 85 94 27 3d
       -0.08873791 0.10145122 0.039547693 0.040913124
000230 5f 10 74 bd 2f 26 1d 3d 37 88 05 3e c6 7a 17 be
       -0.059585925 0.038366493 0.13040243 -0.14792928
000240 4f 35 39 3c d7 ca c3 3b c0 84 08 3e 3d a1 0d 3e
       0.011304214 0.005975108 0.1333189 0.13831039
000250 3c 8d 14 3e 97 7f 7b 3d 46 2a 51 3d ef cb 1a bd
       0.14507002 0.061400976 0.051065706 -0.037792142
000260 4a d5 20 bc e4 80 91 3d af 0a c9 3d 27 0d bf 3d
       -0.009816477 0.07104662 0.09816491 0.093286805
000270 36 e9 5b 3d f7 29 a3 b8 22 56 04 bd d5 01 52 bc
       0.053689204 -7.780262e-05 -0.032308705 -0.01281782
000280 82 da 17 bd 74 f0 d4 bd 2d 00 48 3d bd 6b af 3d
       -0.03707362 -0.10397425 0.048828293 0.08565471
000290 f7 2b 3d 3e d3 3d ea ba ef d2 dc bd 33 d6 3a bd
       0.18473803 -0.0017871208 -0.1078242 -0.045614433
0002a0 a5 12 20 3c 0b e2 da 3c 95 4d 0a 3d 55 16 d8 3c
       0.00977007 0.026719114 0.033765394 0.026377836
0002b0 08 d4 c2 bd 2a 51 8c 3d 7f 9c ac 3c 63 c0 23 3c
       -0.09513098 0.06851418 0.021070717 0.009994599
0002c0 91 5e 99 3d b6 b6 ba 3d 5d 9f 24 3e c0 fd 02 3d
       0.0748874 0.091168806 0.16076417 0.031980276
0002d0 99 02 23 be be 0f 23 bd 3c 6e 7e bd c1 58 8f bd
       -0.1591896 -0.039809935 -0.062116846 -0.0699935
0002e0 a2 d1 43 bd 7d 3f 81 bc 15 df 29 3e cc 29 12 bd
       -0.047807343 -0.015777344 0.16589005 -0.03568439
0002f0 78 ed 62 3d c3 33 9c bd 78 9a 8c bc d6 0b b8 3d
       0.05540225 -0.0762706 -0.0171635 0.089866325
000300 c2 78 27 bc c9 f2 ac 3d 87 f9 ff bc 72 80 32 3d
       -0.010221662 0.08444745 -0.031246914 0.043579526
000310 a6 21 54 3d f5 08 a8 bc 3e 18 f1 3d 7c e5 88 3d
       0.051789902 -0.020512084 0.11772202 0.06684396
000320 b8 40 0f be 18 43 b2 3d 98 bf c0 bd 9c 1a 1e 3c
       -0.13989532 0.08704203 -0.094115436 0.009649899
000330 74 f0 c3 bd f4 6a 5a bc b6 e5 cc bd 25 d9 92 bd
       -0.09567347 -0.013331164 -0.100047514 -0.07170323
000340 d1 0e 83 bd 7a 4a 8b 3c d5 76 0b be fa b9 02 3d
       -0.063993104 0.017003287 -0.1361955 0.031915642
000350 33 18 41 bd c7 5a b5 ba fd bc 4e 3c f2 54 1f bd
       -0.04714222 -0.0013836258 0.0126183005 -0.03889937
000360 dc cc 98 bd 37 6a 8f 3c 5a d2 04 3d a5 96 86 bc
       -0.07460949 0.017506702 0.03242717 -0.016429255
000370 9e 98 3e bd 11 2d 00 bd 71 c7 c1 bd 33 b5 9e 3d
       -0.046532266 -0.03129298 -0.094618686 0.07749405
000380 27 3e d7 bd 1c 8b c4 3b 30 c7 ac 3c 53 41 f2 3c
       -0.105099015 0.0059980284 0.021091074 0.029572165
000390 f5 d4 b9 bd ab 88 80 bd 52 78 e2 3c b4 9b 29 bc
       -0.090738215 -0.06276067 0.027645264 -0.010352064
0003a0 73 7f 95 bd e0 1a a1 bd cf 6a 9b 3c fb 83 a6 3d
       -0.072997 -0.07866454 0.018971829 0.08130642
0003b0 3f 80 fd bd 54 90 b5 bc f9 76 48 bb 17 60 cf bc
       -0.123779766 -0.022163548 -0.0030588491 -0.025314374
0003c0 fe 8e 33 bd a6 1c c8 3d b2 40 ee 3b 4b 45 0a 3e
       -0.04383754 0.09771089 0.007270896 0.13502996
0003d0 16 a8 94 3b ee 04 8e 3c f9 78 a4 3d c9 42 99 bd
       0.004536639 0.017336335 0.08030886 -0.074834414
0003e0 00 5b 0a bc 7a 48 97 ba 64 65 56 3e b1 09 8b 3d
       -0.008444548 -0.0011541985 0.20937115 0.06788958
0003f0 2b 3e 62 3d a8 16 4b 3d 2a 8d d1 3b 5a f0 37 3e
       0.05523507 0.049582154 0.006395002 0.1796278

fc1.bias f4 [32]
000000 c1 f7 fa bd e6 39 20 bc b4 ec 79 bd ac 31 3f 3b
       -0.122542866 -0.009779429 -0.061016753 0.0029173894
000010 cf 25 01 bd 08 f4 ed bd 93 ee 13 be 55 93 c5 3b
       -0.031530198 -0.11618811 -0.14446478 0.0060295262
000020 d2 ed 58 3d ab d6 96 3d 8c c9 cb bd a7 ea ee 3d
       0.052961178 0.073651634 -0.099505514 0.1166585
000030 d4 97 2e 3d 47 0b 81 3c a7 8d 6c bd 33 50 83 bd
       0.042625263 0.015752448 -0.057752278 -0.06411781
000040 bc e6 4e bd 05 13 24 3c e2 df 43 bc 6f 69 2d be
       -0.050513014 0.0100143 -0.011955233 -0.16934751
000050 a7 b2 75 bd af 2a 67 bd 0a 5d 4b 3d 71 9f 99 bd
       -0.05998483 -0.05643719 0.049649276 -0.07501114
000060 a9 c3 27 3c 55 3b b3 bd 72 81 89 3b 11 02 7b bc
       0.01023952 -0.08751551 0.0041963393 -0.015320317
000070 00 ab 12 3d 35 7c 14 3e c0 0f a0 bd 17 a1 72 3d
       0.03580761 0.14500506 -0.07815504 0.05923566

fc2.weight f4 [10, 32]
000000 c2 49 04 bf 4a 56 68 3f 26 19 92 bf 55 92 23 bf
       -0.51675045 0.90756667 -1.1413925 -0.6389516
000010 02 aa ac be fd 4f 12 bf 02 c8 24 bf f2 5a 6f bf
       -0.33723456 -0.571533 -0.6436769 -0.93498147
000020 b6 c0 fa be 5a 49 82 3f 65 30 33 3e 03 32 cc be
       -0.48975152 1.0178635 0.1749893 -0.39881906
000030 53 d1 64 bf 1f 01 ea 3e a4 21 b1 be 9d 64 20 bf
       -0.89381903 0.4570398 -0.34595978 -0.62653524
000040 9d 13 d7 be 92 63 3b 3f 51 e3 1b 3f 4f ec 8a bf
       -0.4200715 0.7319881 0.6089373 -1.0853366
000050 3b 38 41 be f1 3f 59 be 91 f3 e8 3e b3 5d fc 3e
       -0.18869106 -0.21215798 0.45498326 0.49290237
000060 28 18 16 3f 48 e8 8d be 37 37 00 bf 4b 49 d3 be
       0.5863061 -0.2771628 -0.5008425 -0.41266856
000070 44 44 6e bf ed 75 51 bf 9d fd 01 3f d2 5c a5 bf
       -0.93072915 -0.81820565 0.5077761 -1.2918952
000080 d9 04 3a bf 59 6d 42 bf d7 c6 c1 be 30 99 ee be
       -0.72663647 -0.759481 -0.37847015 -0.46601248
000090 17 a4 23 3e 7c b0 56 3f 22 54 53 3e 8c 5d 1f 3e
       0.15980564 0.83863044 0.20637563 0.15563029
0000a0 f0 a1 47 bf bf 45 9b 3f 4c 27 f5 be 50 af 81 3f
       -0.7798147 1.213066 -0.47881544 1.0131626
0000b0 3c 31 8c be eb e4 88 bf 7a 1c 5b bf d4 fd 8f 3e
       -0.27381313 -1.069486 -0.85590327 0.28123343
0000c0 50 99 c1 3d 3a dc a6 3e c5 8f 6e 3f b5 99 12 3f
       0.0945307 0.32589895 0.93188125 0.5726579
0000d0 81 d2 b7 3f a1 24 d3 3e 06 6f c6 3e 74 21 99 bf
       1.4361116 0.41238883 0.3875658 -1.1963334
0000e0 60 9e 3a bf 9e 2e 7c be 5d 43 86 bf 88 50 be be
       -0.7289791 -0.24627158 -1.0489308 -0.37170815
0000f0 d4 9d f3 be 49 c4 4e 3f dc ae bd 3f 5a ba 8f 3f
       -0.4758135 0.8076826 1.4818988 1.1228745
000100 67 d9 21 3f 2c 7b 55 3f a3 79 55 3f 2d 5d ec 3e
       0.63222355 0.8339107 0.8338873 0.46164837
000110 9b b6 70 3f f2 a8 8d bf 79 d6 78 3e 74 6b 61 bf
       0.94028634 -1.1067183 0.24300565 -0.88054585
000120 30 7b 2a be 4a 54 0b bf 02 79 83 bf f5 12 3a 3f
       -0.16648555 -0.5442549 -1.0271304 0.72685176
000130 a8 f0 12 3f c6 2b d5 3e 69 bc 4e 3f 01 1f 8d 3f
       0.5739846 0.4163496 0.8075624 1.1025087
000140 11 59 b6 be 53 e2 04 3f 83 d5 7b bc 4a 2e 38 bf
       -0.35614827 0.51907843 -0.015370729 -0.7194563
000150 d7 68 8e bf a2 1c 81 bf 2a 5f 81 3f be 29 c8 be
       -1.1125745 -1.0086863 1.0107167 -0.39094347
000160 91 8d 8b be 26 29 24 3f 3d 00 a5 be 61 5c 24 be
       -0.27256444 0.6412529 -0.32226744 -0.16050865
000170 8a 97 32 3d 6a 70 8a 3d 87 05 e4 be 53 7b 9c be
       0.04360155 0.067597225 -0.44535467 -0.3056284
000180 c2 77 39 3e d0 ac 26 bf 89 c6 76 be 82 ec 50 be
       0.1811209 -0.6510744 -0.24099173 -0.2040272
000190 98 d8 ec be 52 71 ba be 5c 20 81 bf ae 15 dd 3e
       -0.46258998 -0.36414582 -1.0088 0.43180603
0001a0 ec 6c f8 3e 0f 69 3a 3f 20 cd e2 3d 07 d1 4d 3e
       0.485206 0.72816557 0.11074281 0.20099269
0001b0 32 91 06 3f 24 35 4c 3f ad 90 46 be 15 88 75 bf
       0.525653 0.79768586 -0.19391127 -0.9591077
0001c0 70 b3 5f 3f 18 7c 0c 3e 40 89 2f bf ba f2 3d bf
       0.87383175 0.13719213 -0.685688 -0.74198496
0001d0 50 b2 20 bf d0 40 c0 be 36 11 e9 be 50 8b 70 be
       -0.62772083 -0.37549448 -0.45520943 -0.23490644
0001e0 54 bb 15 3e 3b 82 3f bf 0f 32 a3 3f be 1d a3 3f
       0.14622241 -0.7480809 1.2749652 1.2743452
0001f0 53 01 66 3f f6 79 33 3f 3e 88 eb bd 54 fc 4a 3f
       0.8984577 0.7010797 -0.115005955 0.7929127
000200 81 7f 2c bf 1c 04 64 3f 8b b4 30 bf e1 60 bb 3f
       -0.67382056 0.8906877 -0.69025487 1.463894
000210 55 0b 3a 3f 56 65 a2 be c9 b9 44 bf 1d 27 69 3e
       0.7267354 -0.31717938 -0.76845986 0.22768827
000220 97 ce c0 3f 10 cb 2b bf 1c da 85 bf 58 66 84 3e
       1.5063046 -0.67106724 -1.0457187 0.25859332
000230 91 e1 4c bf 3b 45 7e be 57 4b 21 bf c5 64 3c 3f
       -0.8003169 -0.24831097 -0.63005584 0.7359126
000240 27 63 54 be 67 35 80 bf e2 28 9f bf 25 e4 d3 3e
       -0.20740949 -1.0016297 -1.2434351 0.41384998
000250 97 b0 dc be 78 4f c8 3e 80 58 9e be 8c 34 2f 3f
       -0.43103477 0.3912313 -0.30926895 0.68439555
000260 d9 c5 53 bf b6 53 5c 3f a2 83 58 3e b9 17 09 bf
       -0.82723767 0.8606523 0.21143964 -0.5355182
000270 64 5e 1f 3e 74 2f cf 3e 3c f7 f3 bb 9a f0 b6 be
       0.15563351 0.4046589 -0.007445244 -0.3573044
000280 af 5d 88 3f ca c3 23 bf 82 eb 96 3e 29 7b 99 be
       1.065359 -0.63970625 0.29476553 -0.29976776
000290 99 6e a3 be f2 98 99 3e b3 c5 cf 3e ab 3c e7 3e
       -0.31920317 0.299995 0.4058052 0.45163473
0002a0 9f b1 e0 be 03 3c df be 31 74 68 3f 8d 7a ee bd
       -0.43885514 -0.43600473 0.90802294 -0.116444685
0002b0 62 4a 39 3f 73 f1 66 3f aa 1c 6c bf a2 8d f5 bd
       0.72379124 0.9021217 -0.9223124 -0.11989905
0002c0 4d b8 b0 3f 95 bf 68 3e 84 65 74 be 8b 99 80 3f
       1.3806244 0.22729333 -0.2386685 1.0046858
0002d0 0b 25 a2 3e d3 a2 8f bf 5e 92 f3 bd 5f df 59 3f
       0.31668887 -1.1221565 -0.11893152 0.8510646
0002e0 e1 e7 38 bf df af 0f bf 9c 12 08 3d 03 1a 87 3f
       -0.7222882 -0.56127733 0.033220872 1.0554813
0002f0 1b f5 18 bf d5 06 82 bf 6d db 28 bf 4f 9d 9a 3e
       -0.59749 -1.0158335 -0.6595982 0.30198142
000300 d7 c1 b8 be 62 26 d9 be 99 60 91 bc 57 e0 83 bf
       -0.36085388 -0.42412096 -0.017746257 -1.0302838
000310 2d 7a f5 3e a1 cf 30 3f 77 77 4b be 0d d5 28 3e
       0.47944775 0.69066817 -0.19869791 0.16487522
000320 ca 06 79 3f 6b 6c c8 be e5 54 e1 3e f5 3f 92 bf
       0.97275984 -0.39145216 0.44010082 -1.1425768
000330 a7 35 25 3f bb d5 3b bf f8 2a 17 3f 7d 83 5e 3e
       0.6453499 -0.73373 0.5904994 0.21729846
000340 0e 8d 9b 3e 2c 24 04 3f 77 0f bd 3e b4 e2 bd 3e
       0.30381054 0.51617694 0.3692586 0.37087023
000350 15 88 7c 3f 80 39 15 bf bf 90 a7 3f df 2d bc 3e
       0.98645145 -0.58290863 1.3091048 0.36753747
000360 d5 72 39 3f c9 4b a7 3f 10 09 15 3e 3c 05 ca 3e
       0.72440845 1.3070003 0.14554238 0.3945712
000370 f7 c7 4d 3f 0d a0 2e 3e f0 66 2b bf 5e fa 89 bd
       0.8038325 0.17053242 -0.66953945 -0.06737207
000380 c5 9e b0 3f 81 19 a9 3c 1f a6 16 3e cd 9a 8e 3f
       1.3798453 0.020642044 0.14711808 1.1140991
000390 2a 78 23 bf 14 33 93 3f 8b 56 52 be 6b 65 82 bf
       -0.6385523 1.1499963 -0.20540826 -1.01872
0003a0 8c 13 5e bf 25 ec e6 be 7e ae 68 3e 1d 01 69 3e
       -0.86748576 -0.4510204 0.22722813 0.22754331
0003b0 8e f6 31 3e ca d5 b9 be 38 cb 18 3f 21 a8 f8 bd
       0.1737921 -0.3629592 0.5968509 -0.12141443
0003c0 8b 41 a6 bd b8 e4 d7 be 3c 26 5d bf 27 9e 96 3e
       -0.0811797 -0.42166686 -0.86386466 0.29417536
0003d0 ad 2e e4 3d 4c 6c 43 3f 7c 10 a5 bf 8f 04 12 3f
       0.11141715 0.7633712 -1.2895656 0.57038206
0003e0 50 e8 5c 3f a3 88 07 be db 6e aa 3f dc 43 59 bf
       0.8629198 -0.13235717 1.331508 -0.8486917
0003f0 e4 2e 90 bf b1 e4 39 3f 94 4e f1 bd 43 e2 4d bf
       -1.126431 0.7261458 -0.11782566 -0.80423373

fc2.bias f4 [10]
000000 b4 a6 1e 3b 36 4f 1b 3c 78 b3 8f 3e b3 ec 24 be
       0.002420825 0.009479335 0.2806661 -0.16105919
000010 7b d5 8b be 34 e1 df 3d 2e 0d 43 3e 13 66 b4 3d
       -0.2731131 0.10931626 0.19047996 0.088085316
000020 22 9f 4f be f0 c0 17 be
       -0.20275548 -0.14819694
